…
:["saved_weights = '/content/drive/My Drive/Projects/darknet_bloodcells/backup4/yolo_custom_last.weights'"]},{"cell_type":"code","execution_count":null,"metadata":{"colab":{"base_uri":"https://localhost:8080/"},"executionInfo":{"elapsed":11598077,"status":"ok","timestamp":1604581960274,"user":{"displayName":"张名","photoUrl":"","userId":"14492283366435311780"},"user_tz":-480},"id":"Fw6gu_EOzuNv","outputId":"f63c7a00-1328-4ff2-d019-dfad2c5fbd9a"},"outputs":[{"name":"stdout","output_type":"stream","text":["yolo_custom\n","layer     filters    size              input                output\n","   0 conv     32  3 x 3 / 1   608 x 608 x   3   -\u003e   608 x 608 x  32 0.639 BF\n","   1 conv     64  3 x 3 / 2   608 x 608 x  32   -\u003e   304 x 304 x  64 3.407 BF\n","   2 conv     32  1 x 1 / 1   304 x 304 x  64   -\u003e   304 x 304 x  32 0.379 BF\n","   3 conv     64  3 x 3 / 1   304 x 304 x  32   -\u003e   304 x 304 x  64 3.407 BF\n","   4 Shortcut Layer: 1\n","   5 conv    128  3 x 3 / 2   304 x 304 x  64   -\u003e   152 x 152 x 128 3.407 BF\n","   6 conv     64  1 x 1 / 1   152 x 152 x 128   -\u003e   152 x 152 x  64 0.379 BF\n","   7 conv    128  3 x 3 / 1   152 x 152 x  64   -\u003e   152 x 152 x 128 3.407 BF\n","   8 Shortcut Layer: 5\n","   9 conv     64  1 x 1 / 1   152 x 152 x 128   -\u003e   152 x 152 x  64 0.379 BF\n","  10 conv    128  3 x 3 / 1   152 x 152 x  64   -\u003e   152 x 152 x 128 3.407 BF\n","  11 Shortcut Layer: 8\n","  12 conv    256  3 x 3 / 2   152 x 152 x 128   -\u003e    76 x  76 x 256 3.407 BF\n","  13 conv    128  1 x 1 / 1    76 x  76 x 256   -\u003e    76 x  76 x 128 0.379 BF\n","  14 conv    256  3 x 3 / 1    76 x  76 x 128   -\u003e    76 x  76 x 256 3.407 BF\n","  15 Shortcut Layer: 12\n","  16 conv    128  1 x 1 / 1    76 x  76 x 256   -\u003e    76 x  76 x 128 0.379 BF\n","  17 conv    256  3 x 3 / 1    76 x  76 x 128   -\u003e    76 x  76 x 256 3.407 BF\n","  18 Shortcut Layer: 15\n","  19 conv    128  1 x 1 / 1    76 x  76 x 256   -\u003e    76 x  76 x 128 0.379 BF\n","  20 conv    256  3 x 3 / 1    76 x  76 x 128   -\u003e    76 x  76 x 256 3.407 BF\n","  21 Shortcut Layer: 18\n","  22 conv    128  1 x 1 / 1    76 x  76 x 256   -\u003e    76 x  76 x 128 0.379 BF\n","  23 conv    256  3 x 3 / 1    76 x  76 x 128   -\u003e    76 x  76 x 256 3.407 BF\n","  24 Shortcut Layer: 21\n","  25 conv    128  1 x 1 / 1    76 x  76 x 256   -\u003e    76 x  76 x 128 0.379 BF\n","  26 conv    256  3 x 3 / 1    76 x  76 x 128   -\u003e    76 x  76 x 256 3.407 BF\n","  27 Shortcut Layer: 24\n","  28 conv    128  1 x 1 / 1    76 x  76 x 256   -\u003e    76 x  76 x 128 0.379 BF\n","  29 conv    256  3 x 3 / 1    76 x  76 x 128   -\u003e    76 x  76 x 256 3.407 BF\n","  30 Shortcut Layer: 27\n","  31 conv    128  1 x 1 / 1    76 x  76 x 256   -\u003e    76 x  76 x 128 0.379 BF\n","  32 conv    256  3 x 3 / 1    76 x  76 x 128   -\u003e    76 x  76 x 256 3.407 BF\n","  33 Shortcut Layer: 30\n","  34 conv    128  1 x 1 / 1    76 x  76 x 256   -\u003e    76 x  76 x 128 0.379 BF\n","  35 conv    256  3 x 3 / 1    76 x  76 x 128   -\u003e    76 x  76 x 256 3.407 BF\n","  36 Shortcut Layer: 33\n","  37 conv    512  3 x 3 / 2    76 x  76 x 256   -\u003e    38 x  38 x 512 3.407 BF\n","  38 conv    256  1 x 1 / 1    38 x  38 x 512   -\u003e    38 x  38 x 256 0.379 BF\n","  39 conv    512  3 x 3 / 1    38 x  38 x 256   -\u003e    38 x  38 x 512 3.407 BF\n","  40 Shortcut Layer: 37\n","  41 conv    256  1 x 1 / 1    38 x  38 x 512   -\u003e    38 x  38 x 256 0.379 BF\n","  42 conv    512  3 x 3 / 1    38 x  38 x 256   -\u003e    38 x  38 x 512 3.407 BF\n","  43 Shortcut Layer: 40\n","  44 conv    256  1 x 1 / 1    38 x  38 x 512   -\u003e    38 x  38 x 256 0.379 BF\n","  45 conv    512  3 x 3 / 1    38 x  38 x 256   -\u003e    38 x  38 x 512 3.407 BF\n","  46 Shortcut Layer: 43\n","  47 conv    256  1 x 1 / 1    38 x  38 x 512   -\u003e    38 x  38 x 256 0.379 BF\n","  48 conv    512  3 x 3 / 1    38 x  38 x 256   -\u003e    38 x  38 x 512 3.407 BF\n","  49 Shortcut Layer: 46\n","  50 conv    256  1 x 1 / 1    38 x  38 x 512   -\u003e    38 x  38 x 256 0.379 BF\n","  51 conv    512  3 x 3 / 1    38 x  38 x 256   -\u003e    38 x  38 x 512 3.407 BF\n","  52 Shortcut Layer: 49\n","  53 conv    256  1 x 1 / 1    38 x  38 x 512   -\u003e    38 x  38 x 256 0.379 BF\n","  54 conv    512  3 x 3 / 1    38 x  38 x 256   -\u003e    38 x  38 x 512 3.407 BF\n","  55 Shortcut Layer: 52\n","  56 conv    256  1 x 1 / 1    38 x  38 x 512   -\u003e    38 x  38 x 256 0.379 BF\n","  57 conv    512  3 x 3 / 1    38 x  38 x 256   -\u003e    38 x  38 x 512 3.407 BF\n","  58 Shortcut Layer: 55\n","  59 conv    256  1 x 1 / 1    38 x  38 x 512   -\u003e    38 x  38 x 256 0.379 BF\n","  60 conv    512  3 x 3 / 1    38 x  38 x 256   -\u003e    38 x  38 x 512 3.407 BF\n","  61 Shortcut Layer: 58\n","  62 conv   1024  3 x 3 / 2    38 x  38 x 512   -\u003e    19 x  19 x1024 3.407 BF\n","  63 conv    512  1 x 1 / 1    19 x  19 x1024   -\u003e    19 x  19 x 512 0.379 BF\n","  64 conv   1024  3 x 3 / 1    19 x  19 x 512   -\u003e    19 x  19 x1024 3.407 BF\n","  65 Shortcut Layer: 62\n","  66 conv    512  1 x 1 / 1    19 x  19 x1024   -\u003e    19 x  19 x 512 0.379 BF\n","  67 conv   1024  3 x 3 / 1    19 x  19 x 512   -\u003e    19 x  19 x1024 3.407 BF\n","  68 Shortcut Layer: 65\n","  69 conv    512  1 x 1 / 1    19 x  19 x1024   -\u003e    19 x  19 x 512 0.379 BF\n","  70 conv   1024  3 x 3 / 1    19 x  19 x 512   -\u003e    19 x  19 x1024 3.407 BF\n","  71 Shortcut Layer: 68\n","  72 conv    512  1 x 1 / 1    19 x  19 x1024   -\u003e    19 x  19 x 512 0.379 BF\n","  73 conv   1024  3 x 3 / 1    19 x  19 x 512   -\u003e    19 x  19 x1024 3.407 BF\n","  74 Shortcut Layer: 71\n","  75 conv    512  1 x 1 / 1    19 x  19 x1024   -\u003e    19 x  19 x 512 0.379 BF\n","  76 conv   1024  3 x 3 / 1    19 x  19 x 512   -\u003e    19 x  19 x1024 3.407 BF\n","  77 conv    512  1 x 1 / 1    19 x  19 x1024   -\u003e    19 x  19 x 512 0.379 BF\n","  78 conv   1024  3 x 3 / 1    19 x  19 x 512   -\u003e    19 x  19 x1024 3.407 BF\n","  79 conv    512  1 x 1 / 1    19 x  19 x1024   -\u003e    19 x  19 x 512 0.379 BF\n","  80 conv   1024  3 x 3 / 1    19 x  19 x 512   -\u003e    19 x  19 x1024 3.407 BF\n","  81 conv     27  1 x 1 / 1    19 x  19 x1024   -\u003e    19 x  19 x  27 0.020 BF\n","  82 yolo\n","  83 route  79\n","  84 conv    256  1 x 1 / 1    19 x  19 x 512   -\u003e    19 x  19 x 256 0.095 BF\n","  85 upsample            2x    19 x  19 x 256   -\u003e    38 x  38 x 256\n","  86 route  85 61\n","  87 conv    256  1 x 1 / 1    38 x  38 x 768   -\u003e    38 x  38 x 256 0.568 BF\n","  88 conv    512  3 x 3 / 1    38 x  38 x 256   -\u003e    38 x  38 x 512 3.407 BF\n","  89 conv    256  1 x 1 / 1    38 x  38 x 512   -\u003e    38 x  38 x 256 0.379 BF\n","  90 conv    512  3 x 3 / 1    38 x  38 x 256   -\u003e    38 x  38 x 512 3.407 BF\n","  91 conv    256  1 x 1 / 1    38 x  38 x 512   -\u003e    38 x  38 x 256 0.379 BF\n","  92 conv    512  3 x 3 / 1    38 x  38 x 256   -\u003e    38 x  38 x 512 3.407 BF\n","  93 conv     27  1 x 1 / 1    38 x  38 x 512   -\u003e    38 x  38 x  27 0.040 BF\n","  94 yolo\n","  95 route  91\n","  96 conv    128  1 x 1 / 1    38 x  38 x 256   -\u003e    38 x  38 x 128 0.095 BF\n","  97 upsample            2x    38 x  38 x 128   -\u003e    76 x  76 x 128\n","  98 route  97 36\n","  99 conv    128  1 x 1 / 1    76 x  76 x 384   -\u003e    76 x  76 x 128 0.568 BF\n"," 100 conv    256  3 x 3 / 1    76 x  76 x 128   -\u003e    76 x  76 x 256 3.407 BF\n"," 101 conv    128  1 x 1 / 1    76 x  76 x 256   -\u003e    76 x  76 x 128 0.379 BF\n"," 102 conv    256  3 x 3 / 1    76 x  76 x 128   -\u003e    76 x  76 x 256 3.407 BF\n"," 103 conv    128  1 x 1 / 1    76 x  76 x 256   -\u003e    76 x  76 x 128 0.379 BF\n"," 104 conv    256  3 x 3 / 1    76 x  76 x 128   -\u003e    76 x  76 x 256 3.407 BF\n"," 105 conv     27  1 x 1 / 1    76 x  76 x 256   -\u003e    76 x  76 x  27 0.080 BF\n"," 106 yolo\n","Total BFLOPS 139.512 \n"," Allocate additional workspace_size = 108.69 MB \n","Loading weights from /content/drive/My Drive/Projects/darknet_bloodcells/backup4/yolo_custom_last.weights...\n"," seen 64 \n","Done!\n","Learning Rate: 0.001, Momentum: 0.9, Decay: 0.0005\n","Resizing\n","896 x 896 \n"," try to allocate additional
…
"output_type":"display_data"}],"source":["PredictandShow('/content/drive/My Drive/Projects/BCCD4/test_images/BCCD_00249.jpg')"]},{"cell_type":"code","execution_count":null,"metadata":{"colab":{"base_uri":"https://localhost:8080/"},"executionInfo":{"elapsed":6928,"status":"ok","timestamp":1604584204489,"user":{"displayName":"张名","photoUrl":"","userId":"14492283366435311780"},"user_tz":-480},"id":"tie2nHhBFGrO","outputId":"8e44c812-3a9f-4ef7-b444-75a30c27f0ab"},"outputs":[{"name":"stdout","output_type":"stream","text":["layer     filters    size              input                output\n","   0 conv     32  3 x 3 / 1   608 x 608 x   3   -\u003e   608 x 608 x  32 0.639 BF\n","   1 conv     64  3 x 3 / 2   608 x 608 x  32   -\u003e   304 x 304 x  64 3.407 BF\n","   2 conv     32  1 x 1 / 1   304 x 304 x  64   -\u003e   304 x 304 x  32 0.379 BF\n","   3 conv     64  3 x 3 / 1   304 x 304 x  32   -\u003e   304 x 304 x  64 3.407 BF\n","   4 Shortcut Layer: 1\n","   5 conv    128  3 x 3 / 2   304 x 304 x  64   -\u003e   152 x 152 x 128 3.407 BF\n","   6 conv     64  1 x 1 / 1   152 x 152 x 128   -\u003e   152 x 152 x  64 0.379 BF\n","   7 conv    128  3 x 3 / 1   152 x 152 x  64   -\u003e   152 x 152 x 128 3.407 BF\n","   8 Shortcut Layer: 5\n","   9 conv     64  1 x 1 / 1   152 x 152 x 128   -\u003e   152 x 152 x  64 0.379 BF\n","  10 conv    128  3 x 3 / 1   152 x 152 x  64   -\u003e   152 x 152 x 128 3.407 BF\n","  11 Shortcut Layer: 8\n","  12 conv    256  3 x 3 / 2   152 x 152 x 128   -\u003e    76 x  76 x 256 3.407 BF\n","  13 conv    128  1 x 1 / 1    76 x  76 x 256   -\u003e    76 x  76 x 128 0.379 BF\n","  14 conv    256  3 x 3 / 1    76 x  76 x 128   -\u003e    76 x  76 x 256 3.407 BF\n","  15 Shortcut Layer: 12\n","  16 conv    128  1 x 1 / 1    76 x  76 x 256   -\u003e    76 x  76 x 128 0.379 BF\n","  17 conv    256  3 x 3 / 1    76 x  76 x 128   -\u003e    76 x  76 x 256 3.407 BF\n","  18 Shortcut Layer: 15\n","  19 conv    128  1 x 1 / 1    76 x  76 x 256   -\u003e    76 x  76 x 128 0.379 BF\n","  20 conv    256  3 x 3 / 1    76 x  76 x 128   -\u003e    76 x  76 x 256 3.407 BF\n","  21 Shortcut Layer: 18\n","  22 conv    128  1 x 1 / 1    76 x  76 x 256   -\u003e    76 x  76 x 128 0.379 BF\n","  23 conv    256  3 x 3 / 1    76 x  76 x 128   -\u003e    76 x  76 x 256 3.407 BF\n","  24 Shortcut Layer: 21\n","  25 conv    128  1 x 1 / 1    76 x  76 x 256   -\u003e    76 x  76 x 128 0.379 BF\n","  26 conv    256  3 x 3 / 1    76 x  76 x 128   -\u003e    76 x  76 x 256 3.407 BF\n","  27 Shortcut Layer: 24\n","  28 conv    128  1 x 1 / 1    76 x  76 x 256   -\u003e    76 x  76 x 128 0.379 BF\n","  29 conv    256  3 x 3 / 1    76 x  76 x 128   -\u003e    76 x  76 x 256 3.407 BF\n","  30 Shortcut Layer: 27\n","  31 conv    128  1 x 1 / 1    76 x  76 x 256   -\u003e    76 x  76 x 128 0.379 BF\n","  32 conv    256  3 x 3 / 1    76 x  76 x 128   -\u003e    76 x  76 x 256 3.407 BF\n","  33 Shortcut Layer: 30\n","  34 conv    128  1 x 1 / 1    76 x  76 x 256   -\u003e    76 x  76 x 128 0.379 BF\n","  35 conv    256  3 x 3 / 1    76 x  76 x 128   -\u003e    76 x  76 x 256 3.407 BF\n","  36 Shortcut Layer: 33\n","  37 conv    512  3 x 3 / 2    76 x  76 x 256   -\u003e    38 x  38 x 512 3.407 BF\n","  38 conv    256  1 x 1 / 1    38 x  38 x 512   -\u003e    38 x  38 x 256 0.379 BF\n","  39 conv    512  3 x 3 / 1    38 x  38 x 256   -\u003e    38 x  38 x 512 3.407 BF\n","  40 Shortcut Layer: 37\n","  41 conv    256  1 x 1 / 1    38 x  38 x 512   -\u003e    38 x  38 x 256 0.379 BF\n","  42 conv    512  3 x 3 / 1    38 x  38 x 256   -\u003e    38 x  38 x 512 3.407 BF\n","  43 Shortcut Layer: 40\n","  44 conv    256  1 x 1 / 1    38 x  38 x 512   -\u003e    38 x  38 x 256 0.379 BF\n","  45 conv    512  3 x 3 / 1    38 x  38 x 256   -\u003e    38 x  38 x 512 3.407 BF\n","  46 Shortcut Layer: 43\n","  47 conv    256  1 x 1 / 1    38 x  38 x 512   -\u003e    38 x  38 x 256 0.379 BF\n","  48 conv    512  3 x 3 / 1    38 x  38 x 256   -\u003e    38 x  38 x 512 3.407 BF\n","  49 Shortcut Layer: 46\n","  50 conv    256  1 x 1 / 1    38 x  38 x 512   -\u003e    38 x  38 x 256 0.379 BF\n","  51 conv    512  3 x 3 / 1    38 x  38 x 256   -\u003e    38 x  38 x 512 3.407 BF\n","  52 Shortcut Layer: 49\n","  53 conv    256  1 x 1 / 1    38 x  38 x 512   -\u003e    38 x  38 x 256 0.379 BF\n","  54 conv    512  3 x 3 / 1    38 x  38 x 256   -\u003e    38 x  38 x 512 3.407 BF\n","  55 Shortcut Layer: 52\n","  56 conv    256  1 x 1 / 1    38 x  38 x 512   -\u003e    38 x  38 x 256 0.379 BF\n","  57 conv    512  3 x 3 / 1    38 x  38 x 256   -\u003e    38 x  38 x 512 3.407 BF\n","  58 Shortcut Layer: 55\n","  59 conv    256  1 x 1 / 1    38 x  38 x 512   -\u003e    38 x  38 x 256 0.379 BF\n","  60 conv    512  3 x 3 / 1    38 x  38 x 256   -\u003e    38 x  38 x 512 3.407 BF\n","  61 Shortcut Layer: 58\n","  62 conv   1024  3 x 3 / 2    38 x  38 x 512   -\u003e    19 x  19 x1024 3.407 BF\n","  63 conv    512  1 x 1 / 1    19 x  19 x1024   -\u003e    19 x  19 x 512 0.379 BF\n","  64 conv   1024  3 x 3 / 1    19 x  19 x 512   -\u003e    19 x  19 x1024 3.407 BF\n","  65 Shortcut Layer: 62\n","  66 conv    512  1 x 1 / 1    19 x  19 x1024   -\u003e    19 x  19 x 512 0.379 BF\n","  67 conv   1024  3 x 3 / 1    19 x  19 x 512   -\u003e    19 x  19 x1024 3.407 BF\n","  68 Shortcut Layer: 65\n","  69 conv    512  1 x 1 / 1    19 x  19 x1024   -\u003e    19 x  19 x 512 0.379 BF\n","  70 conv   1024  3 x 3 / 1    19 x  19 x 512   -\u003e    19 x  19 x1024 3.407 BF\n","  71 Shortcut Layer: 68\n","  72 conv    512  1 x 1 / 1    19 x  19 x1024   -\u003e    19 x  19 x 512 0.379 BF\n","  73 conv   1024  3 x 3 / 1    19 x  19 x 512   -\u003e    19 x  19 x1024 3.407 BF\n","  74 Shortcut Layer: 71\n","  75 conv    512  1 x 1 / 1    19 x  19 x1024   -\u003e    19 x  19 x 512 0.379 BF\n","  76 conv   1024  3 x 3 / 1    19 x  19 x 512   -\u003e    19 x  19 x1024 3.407 BF\n","  77 conv    512  1 x 1 / 1    19 x  19 x1024   -\u003e    19 x  19 x 512 0.379 BF\n","  78 conv   1024  3 x 3 / 1    19 x  19 x 512   -\u003e    19 x  19 x1024 3.407 BF\n","  79 conv    512  1 x 1 / 1    19 x  19 x1024   -\u003e    19 x  19 x 512 0.379 BF\n","  80 conv   1024  3 x 3 / 1    19 x  19 x 512   -\u003e    19 x  19 x1024 3.407 BF\n","  81 conv     27  1 x 1 / 1    19 x  19 x1024   -\u003e    19 x  19 x  27 0.020 BF\n","  82 yolo\n","  83 route  79\n","  84 conv    256  1 x 1 / 1    19 x  19 x 512   -\u003e    19 x  19 x 256 0.095 BF\n","  85 upsample            2x    19 x  19 x 256   -\u003e    38 x  38 x 256\n","  86 route  85 61\n","  87 conv    256  1 x 1 / 1    38 x  38 x 768   -\u003e    38 x  38 x 256 0.568 BF\n","  88 conv    512  3 x 3 / 1    38 x  38 x 256   -\u003e    38 x  38 x 512 3.407 BF\n","  89 conv    256  1 x 1 / 1    38 x  38 x 512   -\u003e    38 x  38 x 256 0.379 BF\n","  90 conv    512  3 x 3 / 1    38 x  38 x 256   -\u003e    38 x  38 x 512 3.407 BF\n","  91 conv    256  1 x 1 / 1    38 x  38 x 512   -\u003e    38 x  38 x 256 0.379 BF\n","  92 conv    512  3 x 3 / 1    38 x  38 x 256   -\u003e    38 x  38 x 512 3.407 BF\n","  93 conv     27  1 x 1 / 1    38 x  38 x 512   -\u003e    38 x  38 x  27 0.040 BF\n","  94 yolo\n","  95 route  91\n","  96 conv    128  1 x 1 / 1    38 x  38 x 256   -\u003e    38 x  38 x 128 0.095 BF\n","  97 upsample            2x    38 x  38 x 128   -\u003e    76 x  76 x 128\n","  98 route  97 36\n","  99 conv    128  1 x 1 / 1    76 x  76 x 384   -\u003e    76 x  76 x 128 0.568 BF\n"," 100 conv    256  3 x 3 / 1    76 x  76 x 128   -\u003e    76 x  76 x 256 3.407 BF\n"," 101 conv    128  1 x 1 / 1    76 x  76 x 256   -\u003e    76 x  76 x 128 0.379 BF\n"," 102 conv    256  3 x 3 / 1    76 x  76 x 128   -\u003e    76 x  76 x 256 3.407 BF\n"," 103 conv    128  1 x 1 / 1    76 x  76 x 256   -\u003e    76 x  76 x 128 0.379 BF\n"," 104 conv    256  3 x 3 / 1    76 x  76 x 128   -\u003e    76 x  76 x 256 3.407 BF\n"," 105 conv     27  1 x 1 / 1    76 x  76 x 256   -\u003e    76 x  76 x  27 0.080 BF\n"," 106 yolo\n","Total BFLOPS 139.512 \n"," Allocate additional workspace_size = 55.45 MB \n","Loading weights from /content/drive/My Drive/Projects/darknet_bloodcells/backup4/yolo_custom_2000.weights...\n"," seen 64 \n","Done!\n","/content/drive/My Drive/Projects/BCCD4/test_images/_5_1558.jpeg: Predicted in 72.518000 milli-seconds.\n","lymp
…
